…
Downloading http://r0k.us/graphics/kodak/kodak/kodim23.png
Downloading http://r0k.us/graphics/kodak/kodak/kodim24.png
Kodak validation set successfully downloaded.
(2400, 128, 128, 3)
(2400, 128, 128, 3)
(1680, 128, 128, 3)
(720, 128, 128, 3)
(1680, 128, 128, 3)
(720, 128, 128, 3)
__________________________________________________________________________________________________
Layer (type)                    Output Shape         Param #     Connected to                     
==================================================================================================
input_1 (InputLayer)            (None, 128, 128, 3)  0                                            
__________________________________________________________________________________________________
conv2d (Conv2D)                 (None, 128, 128, 48) 1344        input_1[0][0]                    
__________________________________________________________________________________________________
conv2d_1 (Conv2D)               (None, 128, 128, 48) 20784       conv2d[0][0]                     
__________________________________________________________________________________________________
max_pooling2d (MaxPooling2D)    (None, 64, 64, 48)   0           conv2d_1[0][0]                   
__________________________________________________________________________________________________
conv2d_2 (Conv2D)               (None, 64, 64, 48)   20784       max_pooling2d[0][0]              
__________________________________________________________________________________________________
max_pooling2d_1 (MaxPooling2D)  (None, 32, 32, 48)   0           conv2d_2[0][0]                   
__________________________________________________________________________________________________
conv2d_3 (Conv2D)               (None, 32, 32, 48)   20784       max_pooling2d_1[0][0]            
__________________________________________________________________________________________________
max_pooling2d_2 (MaxPooling2D)  (None, 16, 16, 48)   0           conv2d_3[0][0]                   
__________________________________________________________________________________________________
conv2d_4 (Conv2D)               (None, 16, 16, 48)   20784       max_pooling2d_2[0][0]            
__________________________________________________________________________________________________
max_pooling2d_3 (MaxPooling2D)  (None, 8, 8, 48)     0           conv2d_4[0][0]                   
__________________________________________________________________________________________________
conv2d_5 (Conv2D)               (None, 8, 8, 48)     20784       max_pooling2d_3[0][0]            
__________________________________________________________________________________________________
max_pooling2d_4 (MaxPooling2D)  (None, 4, 4, 48)     0           conv2d_5[0][0]                   
__________________________________________________________________________________________________
conv2d_6 (Conv2D)               (None, 4, 4, 48)     20784       max_pooling2d_4[0][0]            
__________________________________________________________________________________________________
up_sampling2d (UpSampling2D)    (None, 8, 8, 48)     0           conv2d_6[0][0]                   
__________________________________________________________________________________________________
concatenate (Concatenate)       (None, 8, 8, 96)     0           up_sampling2d[0][0]              
                                                                 max_pooling2d_3[0][0]            
__________________________________________________________________________________________________
conv2d_7 (Conv2D)               (None, 8, 8, 96)     83040       concatenate[0][0]                
__________________________________________________________________________________________________
conv2d_8 (Conv2D)               (None, 8, 8, 96)     83040       conv2d_7[0][0]                   
__________________________________________________________________________________________________
up_sampling2d_1 (UpSampling2D)  (None, 16, 16, 96)   0           conv2d_8[0][0]                   
__________________________________________________________________________________________________
concatenate_1 (Concatenate)     (None, 16, 16, 144)  0           up_sampling2d_1[0][0]            
                                                                 max_pooling2d_2[0][0]            
__________________________________________________________________________________________________
conv2d_9 (Conv2D)               (None, 16, 16, 96)   124512      concatenate_1[0][0]              
__________________________________________________________________________________________________
conv2d_10 (Conv2D)              (None, 16, 16, 96)   83040       conv2d_9[0][0]                   
__________________________________________________________________________________________________
up_sampling2d_2 (UpSampling2D)  (None, 32, 32, 96)   0           conv2d_10[0][0]                  
__________________________________________________________________________________________________
concatenate_2 (Concatenate)     (None, 32, 32, 144)  0           up_sampling2d_2[0][0]            
                                                                 max_pooling2d_1[0][0]            
__________________________________________________________________________________________________
conv2d_11 (Conv2D)              (None, 32, 32, 96)   124512      concatenate_2[0][0]              
__________________________________________________________________________________________________
conv2d_12 (Conv2D)              (None, 32, 32, 96)   83040       conv2d_11[0][0]                  
__________________________________________________________________________________________________
up_sampling2d_3 (UpSampling2D)  (None, 64, 64, 96)   0           conv2d_12[0][0]                  
__________________________________________________________________________________________________
concatenate_3 (Concatenate)     (None, 64, 64, 144)  0           up_sampling2d_3[0][0]            
                                                                 max_pooling2d[0][0]              
__________________________________________________________________________________________________
conv2d_13 (Conv2D)              (None, 64, 64, 96)   124512      concatenate_3[0][0]              
__________________________________________________________________________________________________
conv2d_14 (Conv2D)              (None, 64, 64, 96)   83040       conv2d_13[0][0]                  
__________________________________________________________________________________________________
up_sampling2d_4 (UpSampling2D)  (None, 128, 128, 96) 0           conv2d_14[0][0]                  
__________________________________________________________________________________________________
concatenate_4 (Concatenate)     (None, 128, 128, 99) 0           up_sampling2d_4[0][0]            
                                                                 input_1[0][0]                    
__________________________________________________________________________________________________
conv2d_15 (Conv2D)              (None, 128, 128, 64) 57088       concatenate_4[0][0]              
__________________________________________________________________________________________________
conv2d_16 (Conv2D)              (None, 128, 128, 32) 18464       conv2d_15[0][0]                  
__________________________________________________________________________________________________
conv2d_17 (Conv2D)              (None, 128, 128, 3)  867         conv2d_16[0][0]                  
__________________________________________________________________________________________________
leaky_re_lu (LeakyReLU)         (None, 128, 128, 3)  0           conv2d_17[0][0]                  
==================================================================================================
Total params: 991,203
Trainable params: 991,203
Non-trainable params: 0
__________________________________________________________________________________________________
None
Train on 1680 samples, validate on 720 samples
Epoch 1/100
  32/1680 [.........
…
